…
_stride_size_2=1, var_stride_size_3=1, var_third_cnn_block=True, var_three_conv_layer=False, warm=1, without_acc=False, z_struct_size=32, z_var_size=20, zeros_W_Classif=False, zvar_sim_change_zvar=False, zvar_sim_loss_for_all_model=False, zvar_sim_loss_only_for_encoder=False, zvar_sim_normal=False, zvar_sim_var_rand=False)
CUDA Visible devices !
[Using Seed: 10]
Load Encoder struct weights for VAE
use 1 gpu who named: Tesla V100-SXM2-32GB
=> loaded sample_scores and losses
=> no checkpoint found at 'checkpoints_CNN/mnist_vae_var_deeper_3cb_1_4/last'
VAE_var(
  (encoder_var): Sequential(
    (0): Conv2d(1, 32, kernel_size=(3, 3), stride=(1, 1))
    (1): ReLU(inplace=True)
    (2): BatchNorm2d(32, eps=1e-05, momentum=0.1, affine=True, track_running_stats=True)
    (3): Conv2d(32, 32, kernel_size=(3, 3), stride=(1, 1))
    (4): ReLU(inplace=True)
    (5): BatchNorm2d(32, eps=1e-05, momentum=0.1, affine=True, track_running_stats=True)
    (6): Conv2d(32, 32, kernel_size=(5, 5), stride=(2, 2), padding=(2, 2))
    (7): ReLU(inplace=True)
    (8): BatchNorm2d(32, eps=1e-05, momentum=0.1, affine=True, track_running_stats=True)
    (9): Dropout(p=0.4, inplace=False)
    (10): Conv2d(32, 64, kernel_size=(3, 3), stride=(1, 1))
    (11): ReLU(inplace=True)
    (12): BatchNorm2d(64, eps=1e-05, momentum=0.1, affine=True, track_running_stats=True)
    (13): Conv2d(64, 64, kernel_size=(3, 3), stride=(1, 1))
    (14): ReLU(inplace=True)
    (15): BatchNorm2d(64, eps=1e-05, momentum=0.1, affine=True, track_running_stats=True)
    (16): Conv2d(64, 64, kernel_size=(5, 5), stride=(2, 2), padding=(2, 2))
    (17): ReLU(inplace=True)
    (18): BatchNorm2d(64, eps=1e-05, momentum=0.1, affine=True, track_running_stats=True)
    (19): Dropout(p=0.4, inplace=False)
    (20): Conv2d(64, 128, kernel_size=(4, 4), stride=(1, 1))
    (21): ReLU(inplace=True)
    (22): BatchNorm2d(128, eps=1e-05, momentum=0.1, affine=True, track_running_stats=True)
    (23): View()
    (24): Dropout(p=0.4, inplace=False)
    (25): Linear(in_features=512, out_features=40, bias=True)
  )
  (decoder_var): Sequential(
    (0): Linear(in_features=20, out_features=512, bias=True)
    (1): ReLU(inplace=True)
    (2): View()
    (3): ConvTranspose2d(128, 64, kernel_size=(4, 4), stride=(1, 1))
    (4): ReLU(inplace=True)
    (5): ConvTranspose2d(64, 64, kernel_size=(4, 4), stride=(2, 2), padding=(1, 1))
    (6): ReLU(inplace=True)
    (7): ConvTranspose2d(64, 64, kernel_size=(3, 3), stride=(1, 1))
    (8): ReLU(inplace=True)
    (9): ConvTranspose2d(64, 32, kernel_size=(3, 3), stride=(1, 1))
    (10): ReLU(inplace=True)
    (11): ConvTranspose2d(32, 32, kernel_size=(4, 4), stride=(2, 2), padding=(1, 1))
    (12): ReLU(inplace=True)
    (13): ConvTranspose2d(32, 32, kernel_size=(3, 3), stride=(1, 1))
    (14): ReLU(inplace=True)
    (15): ConvTranspose2d(32, 1, kernel_size=(3, 3), stride=(1, 1))
    (16): ReLU(inplace=True)
    (17): Sigmoid()
  )
)
The number of parameters of model is 634473
=> saved checkpoint 'checkpoints_CNN/mnist_vae_var_deeper_3cb_1_4/last' (iter 1875, epoch 1.0)
=> saved checkpoint 'checkpoint_scores_CNN/mnist_vae_var_deeper_3cb_1_4/last' (iter 1875, epoch 1.0)
[Save Checkpoint] epoch: [1.0], Train: total:785.90765, BCE:-1.36587, KLD:787.27332,Test: total:24938.22656, BCE:-1.53798, KLD:24939.76562
…
