…
lambda_recon_wt_rand=1, lambda_recons=1, lambda_zvar_sim=1, latent_spec_cont=None, latent_spec_cont_class=10, latent_spec_cont_var=5, latent_spec_disc=None, latent_spec_disc_class=None, latent_spec_disc_var=None, log_level='info', lr=0.001, max_iter=300.0, num_workers=2, old_weighted=True, random_percentage=0.2, save_step=10000, second_layer_C=False, seed=1, stride_size=2, train=True, zvar_sim_change_zvar=False, zvar_sim_loss_for_all_model=False, zvar_sim_loss_only_for_encoder=False, zvar_sim_normal=False, zvar_sim_var_rand=False)
CUDA Visible devices !
BetaVAE(
  (encoder): Sequential(
    (0): Conv2d(1, 32, kernel_size=(4, 4), stride=(2, 2), padding=(1, 1))
    (1): BatchNorm2d(32, eps=1e-05, momentum=0.1, affine=True, track_running_stats=True)
    (2): ReLU(inplace=True)
    (3): Conv2d(32, 32, kernel_size=(4, 4), stride=(2, 2), padding=(1, 1))
    (4): BatchNorm2d(32, eps=1e-05, momentum=0.1, affine=True, track_running_stats=True)
    (5): ReLU(inplace=True)
    (6): Conv2d(32, 32, kernel_size=(4, 4), stride=(2, 2), padding=(1, 1))
    (7): BatchNorm2d(32, eps=1e-05, momentum=0.1, affine=True, track_running_stats=True)
    (8): ReLU(inplace=True)
    (9): View()
    (10): Linear(in_features=512, out_features=256, bias=True)
    (11): ReLU(inplace=True)
    (12): Linear(in_features=256, out_features=256, bias=True)
    (13): ReLU(inplace=True)
    (14): Linear(in_features=256, out_features=10, bias=True)
  )
  (decoder): Sequential(
    (0): Linear(in_features=15, out_features=256, bias=True)
    (1): ReLU(inplace=True)
    (2): Linear(in_features=256, out_features=256, bias=True)
    (3): ReLU(inplace=True)
    (4): Linear(in_features=256, out_features=512, bias=True)
    (5): ReLU(inplace=True)
    (6): View()
    (7): ConvTranspose2d(32, 32, kernel_size=(4, 4), stride=(2, 2), padding=(1, 1))
    (8): ReLU(inplace=True)
    (9): ConvTranspose2d(32, 32, kernel_size=(4, 4), stride=(2, 2), padding=(1, 1))
    (10): ReLU(inplace=True)
    (11): ConvTranspose2d(32, 1, kernel_size=(4, 4), stride=(2, 2), padding=(1, 1))
    (12): Sigmoid()
  )
  (L3_classifier): Sequential(
    (0): Linear(in_features=15, out_features=10, bias=True)
  )
  (E1): Sequential(
    (0): Conv2d(32, 3, kernel_size=(3, 3), stride=(1, 1), padding=(1, 1))
    (1): BatchNorm2d(3, eps=1e-05, momentum=0.1, affine=True, track_running_stats=True)
    (2): ReLU()
    (3): MaxPool2d(kernel_size=2, stride=2, padding=0, dilation=1, ceil_mode=False)
    (4): View()
    (5): Linear(in_features=192, out_features=20, bias=True)
  )
)
The number of parameters of model is 472968
use 1 gpu who named: Tesla K20m
=> loaded sample_scores and losses
=> no checkpoint found at 'checkpoints/VAE_Class_E1_old_w_E1_new_expe_beta_2_1_struct_10/last'
epoch: [13.3], vae_loss:205.25, Lr:5.70, L_kl:199.33, L_kl_var:73.04, L_kl_struct:126.29, L_c:0.22, L_pc:0.00, L_m:0.00
=> saved checkpoint 'checkpoints/VAE_Class_E1_old_w_E1_new_expe_beta_2_1_struct_10/last' (iter 10000, epoch 13.333333333333334)
…
